glucose_prediction_model.tflite (tflite, 38288 bytes, 5 tensors)

arith.constant f4 [1, 64]
00000000: 5270 d8bc 4e29 b43e 6ab0 043f c646 063f
00000010: b0cc 1fbe d3a3 89be 15a6 d73e b680 da3e
00000020: 5be7 c63e afe3 50be a518 00be e49f 85be
00000030: 7244 c73e db22 b3bd 8c76 903e 2379 60be
00000040: 12bf 39be 2d7e 20be 3ad2 5dbe 2787 c73e
00000050: 51ce c93e ab9a 063f 47bd 87be 35d3 033f
00000060: 14f0 d63e 0729 d3bf 5a6a 903e 1b39 c23e
00000070: 9448 8d3e 824d b6bd eeee 0bbe 285a 073f
00000080: 2995 d13e 4d7f 033f 43c9 fa3e 20ad c63e
00000090: ff48 ad3e ad95 01be 91e9 863e a722 21be
000000a0: 35c9 093f c83b ce3e d9d6 80be 316b 6abe
000000b0: 5e82 8fbc 6ef8 f4bf ff66 8b3e 26a2 b73e
000000c0: 36be d4b9 d105 1abe 1dce 63c0 f5e4 c23e
000000d0: 73fc 30be 260d 0a3f 8f9c 4abd 2686 81be
000000e0: a12f 80be 6f6f c4bd 8c8a e33e f98e 813e
000000f0: 1d50 80bf b12b c63e c38e c93e d9a4 923e
-0.026420746 0.35187763 0.51831686 0.5245174 -0.15605426 -0.268828 0.42118898 0.42676324
0.38848385 -0.20399354 -0.12509401 -0.2609855 0.38919407 -0.087468825 0.28215444 -0.2192121
-0.18139294 -0.15673132 -0.21662226 0.389703 0.3941522 0.52579755 -0.26511595 0.5149415
0.4198004 -1.6496896 0.2820614 0.37934193 0.27594435 -0.08901502 -0.13665363 0.5287194
0.40934113 0.5136612 0.48981676 0.3880396 0.33844754 -0.12654753 0.26350072 -0.15735875
0.5382264 0.40279984 -0.25163916 -0.22892453 -0.017518219 -1.9138315 0.27227017 0.35865897
-0.0004057751 -0.15041281 -3.5594552 0.38065305 -0.17283802 0.5392631 -0.049465712 -0.2529766
-0.25036338 -0.09591567 0.4444164 0.25304392 -1.0024449 0.3870521 0.3936673 0.28641394

arith.constant1 f4 [64, 128]
00000000: 73e2 e6bd 8277 0ebd 0427 8ebc f9d9 a6bd
00000010: 688d b73c 846e 31be 48b7 8f3d 1e87 69bd
00000020: 8c84 10bd d5d6 dabd 5500 09be d51e 32be
00000030: 3fa4 5fbd d94c f63d c358 1c3e 9c87 3bbe
00000040: ceb5 9c3d 3fd2 5dbc ff87 c9bd 91e3 f33d
00000050: 3e20 aa3d 4b4f 87bd 3471 88bc 491d 113d
00000060: a63d 683d da82 043e 17ac 86bd 52ed 01be
00000070: 5925 e73c 40fd 153d 6558 b0bd 8c54 d43d
00000080: 22d5 c0bc 050c 8f3c 6055 f6bd f0de f73d
00000090: 5ada e5bd f3cc 33be f336 11be 3435 1f3e
000000a0: 56d9 883b d120 abbd b0fb b23d 4b77 203c
000000b0: 4f53 dabb bcf4 5abd 29d3 013c d9f9 bebc
000000c0: 0992 093e 91fa bcbd 4bf2 0c3e eff2 003d
000000d0: a7f0 3bbc 4990 f33d 6fa6 0f3d 10e9 35be
000000e0: 8576 103d 2e2f 0fbe f3eb 4a3d f310 223e
000000f0: fc0b 1c3e ec29 683d cd35 cb3d bec4 f6bd
00000100: dc0c 9e3d 864e e2bd fa6e 873d 0ba8 24be
00000110: a473 24be da5d df3c 231c 28be e9a2 e0bc
00000120: ece1 44bd 763b 333d f446 f3bd b3e3 1d3e
00000130: bb97 06be 2418 23be 5bae 733d e7b1 05be
00000140: 7ffa f23d 0e0c 9c3c 7e46 07be 09c4 083e
00000150: 05a8 8a3d 2be9 f4bd c75c b23d 75f8 debc
00000160: fe30 0cbe d1ec 28bd 8c82 df3d 4674 4cbd
00000170: a125 8e3d 75ba efbd 2e23 cfbc 8c1a 0fbe
00000180: df95 ccbd 4ba5 5c3d 8c8f 8fbd d6ef 13be
00000190: 32da 21be fffb 18be ff45 5b3d 125a 783d
000001a0: b70f 9bbd 04b2 033e 6f00 0e3d 214b ffbd
000001b0: 1a6d b0bd 00b9 f1bd 77df d13c f1e2 b1bd
000001c0: f1cd 53bd 719b 78bd 16b7 8f3d 8cfe 843c
000001d0: 9c0b e9bd a38d d4bd 4532 143e aedc 71bd
000001e0: 8c68 533d 7096 0fbe 0ad7 4a3c 4404 063e
000001f0: 9ff4 de3d d670 95bd c4fa cebd 08e1 f9bd
00000200: 041c 8a3e 7d20 8b3d a574 bb3e a9b9 043d
00000210: 5369 0a3e 08c4 243e f556 d73d 1ab8 923e
00000220: 45d2 663e 98ac e43c b1e2 7b3b 7246 873e
00000230: 16e5 093e 1c31 a33d fd60 a23e 5834 083e
00000240: a0a3 203e 71bd c13e 28e3 143f c2ec da3d
00000250: 0fdf a53e e7e9 da3d 61cc ab3e 8150 943e
00000260: c63a e53e 6ee4 1d3e 4143 48bd c0b0 983e
00000270: 8ced bf3e 2f44 f03d 2e56 8f3e dff0 09bd
00000280: 11e7 523c 6b88 b33e 2ef3 6e3e e8fb be3d
00000290: b538 c53a 15bf ac3d a0b3 ca3e 9e03 733d
000002a0: 3dbe bb3d f273 883d dd1c 3d3e 238e 8d3d
000002b0: 2815 083e 5e94 303e 3ce3 343e e9b3 293e
000002c0: 0622 d63e ce84 883d 2882 8a3c 1424 8e3e
000002d0: 2758 6c3e 37f7 4b3e 0101 533e 276f 103e
000002e0: 7fa6 773e a6cc 433e 1b1a 6f3e 5c14 a33e
000002f0: 9811 743e 7c50 003e 261f dd3c d25e 57bc
00000300: 400d 953e c06b 833e 9f1c 9abc f3b8 063f
00000310: e985 8f3e b2f7 0f3e dc0b 943e f05e 493e
00000320: aaeb 4a3e 3cf5 243e 71e4 3f3e a40d 543e
00000330: d9b1 0c3e e980 fe3d 0eba 283d 78e4 513e
00000340: 1f0c b53e 7efd b63e 3057 023e c57a d63e
00000350: 2987 153e 0fe0 543e ff80 343e 6f00 a23e
00000360: a102 ab3e 856a ca3d f8ec 6a3e 890d db3d
00000370: 691a 90bc e54c eb3d 6293 183e f623 103e
00000380: 89e4 9abd bd86 193e 1610 f93d 298e e13d
00000390: 6925 cf3e 27df 8b3e ec95 cf3e 45ac 3f3e
000003a0: 5f8c ab3e 6aa9 e93d bb90 6d3e 780c 373e
000003b0: ebaa 9e3e 34c7 333e 116c f73e 13e3 743c
000003c0: 82de 6f3e deb2 a1bd 4486 143e 3ef4 a7bc
000003d0: 180c ba3c 6d95 5b3e f5f0 193e d106 b73d
000003e0: 30ae c23e fb62 aa3e 45c5 b33e ba34 883e
000003f0: b100 443e 4c30 a83e 48f4 0f3d a8bb 863e
-0.112736605 -0.03478194 -0.017352588 -0.08147044 0.022406295 -0.17327315 0.0701738 -0.057013623
-0.035282657 -0.10685507 -0.13379033 -0.17394574 -0.054599997 0.12026376 0.15268235 -0.1831345
0.07651864 -0.013538896 -0.09840392 0.11908639 0.08306931 -0.06606921 -0.016655542 0.03542832
0.056699418 0.12940541 -0.06575792 -0.12688187 0.028216051 0.03661847 -0.0861061 0.103676885
-0.02353913 0.017461786 -0.12028003 0.12103069 -0.11223288 -0.1755865 -0.14181118 0.15547639
0.004176299 -0.083558686 0.08739412 0.009794067 -0.006662763 -0.053456053 0.00792388 -0.023312496
0.13434614 -0.09227479 0.13764302 0.03148168 -0.01147095 0.118927546 0.035070833 -0.17764688
0.03526928 -0.13982841 0.049541425 0.15826778 0.15238947 0.056680605 0.09922371 -0.12049244
0.077172965 -0.110501334 0.06612964 -0.16079728 -0.16059738 0.027266432 -0.16416983 -0.027421432
-0.04806702 0.04375788 -0.118787676 0.15418892 -0.13143818 -0.15927178 0.05949245 -0.13056146
0.118641846 0.019048717 -0.13210484 0.13356031 0.067703284 -0.11958536 0.08709102 -0.027218083
-0.13690564 -0.04124147 0.10913572 -0.049915574 0.06940771 -0.11705486 -0.02528533 -0.1397497
-0.09989523 0.053868573 -0.07009801 -0.14446959 -0.15805891 -0.14939879 0.05353355 0.060632773
-0.07571357 0.12860876 0.034668382 -0.124655016 -0.086145595 -0.11802864 0.025619252 -0.08685864
-0.051710073 -0.060695115 0.07017343 0.016234659 -0.113791674 -0.103785776 0.14472301 -0.059048347
0.051613376 -0.14022231 0.012380371 0.13087565 0.108865015 -0.07296912 -0.101064235 -0.122011244
0.269745 0.06793306 0.3661243 0.03240362 0.1351674 0.16090405 0.105146326 0.28656083
0.22541149 0.02791433 0.003843468 0.26420933 0.13466296 0.07968351 0.3171462 0.13301218
0.15687418 0.37839845 0.5815911 0.10689689 0.32396743 0.106891446 0.33554366 0.2896767
0.44771403 0.1541917 -0.048892263 0.2982235 0.3748592 0.11731755 0.27995437 -0.03367698
0.012872473 0.35065016 0.23334953 0.09325391 0.0015046807 0.084348835 0.39590168 0.05932962
0.091671444 0.0666274 0.18468042 0.06911876 0.1328932 0.17244098 0.17664808 0.16572537
0.41822833 0.066659555 0.016907766 0.277619 0.23080502 0.19918524 0.20605852 0.14104901
0.24184607 0.19121036 0.23349802 0.3185147 0.23834836 0.12530702 0.026992392 -0.0131451655
0.2911167 0.25668144 -0.018812476 0.5262596 0.28031853 0.14059332 0.28915298 0.19665122
0.19816461 0.16109174 0.18739487 0.20708328 0.13739718 0.124269314 0.04119306 0.2049731
0.3536081 0.35740274 0.12728572 0.4189054 0.14602341 0.20788597 0.17627333 0.31640956
0.33400443 0.09883598 0.22941959 0.10695941 -0.017590718 0.11489276 0.14899972 0.14076218
-0.07563121 0.14992805 0.12161271 0.11013443 0.4045823 0.2731869 0.4054407 0.1871806
0.33505532 0.11409266 0.23199742 0.1787585 0.30989775 0.17556459 0.48324636 0.014946717
0.23424724 -0.07895444 0.14504343 -0.020502206 0.022710845 0.2144372 0.15033324 0.08936847
0.3802352 0.3327864 0.35111442 0.26602727 0.19140889 0.32849348 0.035145074 0.26315045

arith.constant3 f4 [64]
00000000: b2b7 96bc 2d92 4b3e 7833 2e3e a6a6 293e
00000010: 97a2 c4bc 4747 4abc c913 353e 124c 3c3e
00000020: 6657 2f3e 1b6b 37bd a1fe f4bc deaa 99bc
00000030: 98c4 3d3e 99ce e7bc cc3d 523e aaec 0dbd
00000040: b4dd b5bc 276a d0bc 1a20 b0bc bcc4 313e
00000050: fe10 303e 9f04 2e3e aca8 e8bc 29db 243e
00000060: f616 393e 40b1 d03d 1573 583e 9cd2 403e
00000070: 0e38 6a3e 5c00 12bd 949a d4bc 96fe 253e
00000080: 1a8b 3c3e 082f 2c3e 63cf 203e 8f46 383e
00000090: d70d 4d3e 0000 0000 29f9 7d3e 5108 babc
000000a0: 9b1f 2b3e 98db 303e cd5d d3bc 89ef 17bd
000000b0: 5bd3 90bc 287f 0c3d e502 593e 53c7 493e
000000c0: 135d 48bd f329 16bd 6e7a c63e c755 413e
000000d0: f713 bdbc f1c0 263e 3b47 9ebc 12be 20bd
000000e0: 0475 b9bc 6b0a babc 1eb7 383e 60f0 6a3e
000000f0: 4247 df3d 4d38 303e f930 313e 6a44 573e
-0.01839814 0.1987998 0.17011821 0.16567478 -0.02400331 -0.012346095 0.17683329 0.18388394
0.17123184 -0.044779878 -0.029906573 -0.018758234 0.18532026 -0.028296756 0.20531386 -0.03464953
-0.022200443 -0.025441242 -0.021499682 0.17360204 0.17193982 0.1699395 -0.028400742 0.16099228
0.18075165 0.10190058 0.2113765 0.18830341 0.22872946 -0.035644874 -0.025952615 0.16210398
0.18412438 0.16814816 0.15704112 0.17995666 0.2002481 0.0 0.24802078 -0.022709044
0.16711275 0.17271268 -0.025801564 -0.037093673 -0.017678907 0.034300953 0.2119251 0.19704942
-0.048916887 -0.0366611 0.3876528 0.18880378 -0.023080809 0.16284539 -0.019321075 -0.039243765
-0.022638805 -0.022710046 0.18038604 0.22943258 0.10902263 0.17208977 0.17303838 0.21022192

sequential_105_1/dense_317_1/BiasAdd/ReadVariableOp f4 [128]
00000000: a6fc d83e 4db3 113f ac0a 173f 2c4f 8e3e
00000010: f9e7 0e3f a3c7 533f ee3a da3e 07e8 ef3e
00000020: 9c03 303f c38a 043f 3d00 d23e b362 dd3e
00000030: 9503 a43e 47b1 373f 9c44 223f 6267 ec3e
00000040: 01d1 e03e fda5 f73e 4471 123f de86 0d3f
00000050: e9cf ac3e 1b3a 393f 1754 a43e 29d7 023f
00000060: 21cd 103f 5c0d bd3e 5795 e83e a7ef c13e
00000070: ce88 1b3f 0336 a93e 0578 1d3f 62bf 0c3f
00000080: 45ad d43e 29a6 fa3e d141 ce3e 5fcc f93e
00000090: 1dba df3e f7a7 da3e 4b78 163f cf38 0e3f
000000a0: 7949 053f 6535 b83e d5e9 f13e 4ec7 e73e
000000b0: e16e b33e c89d ea3e 1d54 263f d788 ed3e
000000c0: cf8a 003f 10a7 c83e 9032 e93e 2977 123f
000000d0: 39ac 1f3f d04d 7a3e 0560 4a3f db80 0c3f
000000e0: 2889 5a3e 6419 fb3e dc09 e33e dab3 123f
000000f0: a606 e73e b127 b53e 09f8 cf3e 3dcc d03e
00000100: b922 f33e 9ec7 e23e 607e 043f 23e1 023f
00000110: a352 d33e d81c 003f 6171 053f f76a 363f
00000120: c7b5 233f 0acc d43e ed51 0e3f 7ee2 c33e
00000130: 5c07 d83e 8db4 6a3f b5d7 463e c29d 0e3f
00000140: 8441 023f 4349 163f 5124 f33e abb6 cc3e
00000150: fa19 c13e 64a9 593f 6fac 113f 1266 f83e
00000160: e14a 173f 428c fd3e b201 933e 4600 f53e
00000170: 52fe dc3e bb9e 143f c3cd 063f 08f8 343f
00000180: 0229 973e f06d d03e 1f0b be3e c402 e83e
00000190: cace 023f 01f6 263f 17c5 063f e8d7 d83e
000001a0: a2eb 243f 2c00 ed3e abea 093f 0507 f33e
000001b0: 7d1e 0c3f 4c3d c53e 8422 f13e de4c 053f
000001c0: 27b2 b63e d19a 3b3e bf47 773f 2e5a 943e
000001d0: cf79 063f ec73 f93e 61a7 d03e 003e e73e
000001e0: 8ab9 153f 04ee 243f 11e6 083f 6e4f eb3e
000001f0: ad5e ee3e f7a8 fd3e 25cd be3e b470 0a3f
0.42380255 0.56914216 0.5900066 0.27794778 0.5582271 0.82726496 0.42623085 0.4685671
0.6875551 0.51774234 0.41015807 0.43239364 0.32033983 0.7175488 0.6338594 0.46172625
0.43909457 0.48368827 0.5720408 0.55283916 0.33752373 0.72354287 0.32095405 0.5110956
0.56563 0.36924255 0.45426437 0.37878153 0.6075562 0.3304902 0.6151126 0.54979527
0.41538444 0.48954895 0.4028459 0.48788735 0.4369668 0.42706272 0.587773 0.55555433
0.52065235 0.35978237 0.47248712 0.45269245 0.3504553 0.45823503 0.64972097 0.46393463
0.50211805 0.3918996 0.4554639 0.57213074 0.62372166 0.24443746 0.79052764 0.5488412
0.21341383 0.4904281 0.4434346 0.5730568 0.4512226 0.35381845 0.40618923 0.4078082
0.4748743 0.4429292 0.5175533 0.5112478 0.41273984 0.5004401 0.5212613 0.71256965
0.63949245 0.4156192 0.5559376 0.38258737 0.42193115 0.9168175 0.19418223 0.5570947
0.5088122 0.5870554 0.47488645 0.39983115 0.3771513 0.85024095 0.5690374 0.48515373
0.5909863 0.4952107 0.2871223 0.4785177 0.4316278 0.58054703 0.5265772 0.70690966
0.29523474 0.40708876 0.3711786 0.4531461 0.51096785 0.6521912 0.52644485 0.42352223
0.6442205 0.46289194 0.538737 0.47466293 0.5473402 0.38523328 0.47096646 0.52070415
0.35682794 0.18320777 0.9659385 0.28975052 0.52529615 0.48721254 0.407527 0.4516449
0.58486235 0.64425683 0.53476053 0.45959038 0.46556607 0.49542972 0.37265888 0.5407822

sequential_105_1/dense_317_1/MatMul f4 [128, 5]
00000000: 00ec 1f3d 155d b1bc 61be febc 8d96 8fbe
00000010: 4a20 ff3e 7249 eebc 398e ba3d 6027 c93d
00000020: 0c2d 89be c731 f63e 84f4 3abb b84e a4bc
00000030: 4350 b73c 0931 c6be 063e 293f dd2c 81bd
00000040: b016 29be 1995 4a3e 72cb 923e 6e97 79be
00000050: 4f21 9f3c 0184 fe3b 9baa 803c 05cb 133e
00000060: 9cb0 8f3e 5ed9 a23c 501f 883c 0abd 18bd
00000070: 3d0b 583d aead 983e 1666 93bd b715 283c
00000080: 934a 9bbc 4f48 3fbe 3dbf f23e 0efa 32bd
00000090: 502b d53b 70f5 1b3c eaa5 6bbe a7fd 023f
000000a0: 926c e23c 966c c03c a4aa 04bd 3d0b 503e
000000b0: 6dc0 773e a69b 54bd 3268 743d b36c c0bd
000000c0: 0a83 2abe 1f73 963e a432 f33d 5acf 99be
000000d0: 88d2 d5bd a83a 88bd 34cc 323e 4cb4 26bd
000000e0: 4f36 c43b 92d6 1a3d d8e9 90be 453b 0c3f
000000f0: 42cf 343d af8b edbd a898 103e b9c8 683e
00000100: 793d 0e3c ff5d 2ebe b64d 2cbd 5c56 5a3e
00000110: f147 333e d6e6 cebd 9ada a2bc e8e5 25bb
00000120: e81a b1bb fcf9 b83b f3d2 97bf c850 53bd
00000130: 5a25 f4bc 2dec c1bd cc52 423e 086c c63d
00000140: bdea 213b 2f13 1dbb 59b4 57bc c5c5 96be
00000150: 0776 f93e cb48 f9bc 2615 c33b 59d3 b83c
00000160: 93b0 72be 9d2d 063f 87f1 3b3c 4310 0bbc
00000170: 4e2f 32bc f972 c7be eb30 223f 3af6 ff3c
00000180: 2b2c 10bd 6115 ffbc 8e81 aebe bd00 1d3f
00000190: ebcc ca3b 55a9 383b c8f3 0e3d 0eb6 0f3e
000001a0: f44b f7be d64f 353d 1379 393e cc12 0dbe
000001b0: af2e d2be 4a24 6d3e f298 07bb 4554 223b
000001c0: dc0d b03c e35d b43e 8a9a a83d aa4a 623d
000001d0: d682 843d f8bd bbbb 9b40 e83e d545 473c
000001e0: 6ea3 713c 78c5 9fbc a4c1 abbc 155e c6be
000001f0: 8f68 223f 4879 a0bd 2288 dfbd c5a1 2bbe
00000200: 378d cb3d 48bd 4a3e a587 fa3a ce94 9bbb
00000210: fcd4 83bc bbce 123e db3b 2cbf 9092 3cbb
00000220: ff3c 7a3b 8e3d c73c a83e d93e a1e7 dc3d
00000230: 352a 04bb 7747 873b 9a4c 93ba 022c d1be
00000240: 04dc 283f 38d5 77bd 44d1 31be 23bd 77be
00000250: 7cda f23e 8445 30be 96c3 b439 d494 0f3b
00000260: 110d 5bbb e559 d2be 53c2 2b3f e428 c4bd
00000270: c508 6abe e923 383e 4a16 15bd 338b 623e
00000280: 9197 a23c d18b 1dbc e797 773c a6c3 c13e
00000290: 6085 2abc 6838 203d 998c fe3d 4a12 dfbd
000002a0: ce64 87be fdb9 903e b09b a2bc 4ff2 5e3d
000002b0: 64d6 383d d134 23be b63a b13e 5e50 2b3b
000002c0: 1019 08bb 6618 4dbb d7da 013e 77a3 2bbf
000002d0: e34f 3dba 66fb 27bb 87c0 b33c aa30 dc3e
000002e0: ac6c a23c 7b36 13be 0340 f53c f9e5 643e
000002f0: da6d d43c f94b 143e 80e2 a43b e447 cf3a
00000300: ced6 643b 9950 e23d 5384 9c3e d5cf 39be
00000310: 8b1f 2c3e b227 78be ac6b 473d e382 23be
00000320: 7073 28bc 20fb df3d 6948 bb3c 2a8a 5c3c
00000330: 3f5e 873e 6747 f2bb 72b3 67bb aac9 f9ba
00000340: f2e7 b33d 49a0 05bf d651 16bd 6cdc acbb
00000350: 68cf 35bc 8f40 223c 95bc 74bf bc31 8bbd
00000360: 99d3 033e f4df e83d bbdc 4f3e 4aac 2a3d
00000370: 7a68 aa3b 6265 703b 6374 b33c 268d c13e
00000380: d967 bc3d 01a2 9d3d 1db4 bd3d 13be 12bc
00000390: 9833 573e 9607 0a3e 95ef 153a 3222 d8bb
000003a0: 744a 80bb 444a a13d fbf1 85bf 486f bcbc
000003b0: 5b21 893a 652e 3d3c 3823 67be 8fed f53e
000003c0: 3bca 243d 73ef 3cbd ec0e 36bd 3b9b 9bbe
000003d0: e0ab 083f 43ce f2bc ccc8 1e3e 8f2e 223e
000003e0: f1fb 903e 3383 ba39 aacd e4bc 0493 aebc
000003f0: a1dd 63bd 8086 b33e 41f2 3d3c 2044 a03a
0.039043427 -0.02165083 -0.03109664 -0.2804455 0.49829322 -0.029087756 0.09109158 0.09821963
-0.2679218 0.48084852 -0.002852709 -0.020057067 0.022377139 -0.38709286 0.66110265 -0.06307385
-0.16512561 0.19783439 0.2867084 -0.24374172 0.019425062 0.007767201 0.015706351 0.14432915
0.2806443 0.01987904 0.016616493 -0.037289657 0.052745093 0.29820007 -0.07197206 0.0102590835
-0.018956458 -0.18679927 0.47411528 -0.043695502 0.0065054074 0.009518966 -0.2301251 0.5116829
0.027639661 0.023489278 -0.032389298 0.20316787 0.24194498 -0.05190625 0.05966968 -0.09395733
-0.1665155 0.29384705 0.11874893 -0.3004101 -0.10440546 -0.06651813 0.1746071 -0.04069929
0.0059879194 0.037802286 -0.2830341 0.5477794 0.04414297 -0.11598908 0.14120734 0.2273282
0.008681648 -0.17028044 -0.0420663 0.21322006 0.17507912 -0.10102622 -0.019879628 -0.0025314037
-0.005404819 0.005645035 -1.1861252 -0.05159071 -0.029802967 -0.09468875 0.18976897 0.09688574
0.0024706565 -0.0023967733 -0.013165557 -0.2944776 0.4872286 -0.030430218 0.005953449 0.022561716
-0.2370017 0.5241335 0.011471159 -0.008487764 -0.010875536 -0.38954905 0.6335589 0.03124534
-0.03519837 -0.031138124 -0.34083217 0.6132925 0.006188979 0.0028177102 0.034900457 0.14034292
-0.48300135 0.04426559 0.18112592 -0.13776702 -0.41051242 0.23158374 -0.0020690528 0.0024769467
0.021490984 0.3522788 0.08232601 0.055246986 0.064702675 -0.005729433 0.4536179 0.012162645
0.014748437 -0.01950334 -0.020966358 -0.38743654 0.63440794 -0.078356326 -0.10914637 -0.16760929
0.09939044 0.19798768 0.0019113912 -0.0047479635 -0.01609277 0.14336674 -0.6727883 -0.0028773881
0.003818333 0.024321344 0.42430615 0.10786367 -0.002016676 0.0041283923 -0.0011238039 -0.40853888
0.6596072 -0.060506076 -0.17364985 -0.24193244 0.47432315 -0.17214018 0.00034477998 0.0021908777
-0.0033424536 -0.4108421 0.6709339 -0.09578112 -0.22854908 0.17982449 -0.03639821 0.22123413
0.019847663 -0.009615854 0.0151119 0.3784458 -0.010407776 0.039116293 0.124291606 -0.1089216
-0.26444095 0.28266898 -0.019849628 0.054430302 0.045126334 -0.15938117 0.34615105 0.0026140432
-0.0020766892 -0.003129506 0.12681137 -0.670463 -0.0007221682 -0.0025632023 0.02194239 0.43005878
0.01982721 -0.14376251 0.02993775 0.22353353 0.025931288 0.14482106 0.0050318837 0.0015814272
0.0034918073 0.11050529 0.30569705 -0.18145688 0.16808908 -0.24233893 0.04868667 -0.15967898
-0.010281429 0.1093657 0.022861676 0.013460675 0.26439092 -0.0073937657 -0.003535476 -0.0019057293
0.087844744 -0.521977 -0.03669914 -0.0052753 -0.011096813 0.009903087 -0.95600253 -0.067965955
0.12873687 0.11370841 0.20299046 0.041668214 0.005200443 0.0036681523 0.021906083 0.37803
0.09199495 0.076969154 0.092628695 -0.00895645 0.21015775 0.13479456 0.00057195994 -0.0065958733
-0.0039151255 0.07875493 -1.0464472 -0.023002282 0.0010462211 0.011546706 -0.22572029 0.48032805
0.040231925 -0.046126794 -0.044447824 -0.3039187 0.5338726 -0.029639369 0.15506285 0.15838073
0.28317216 0.00035574436 -0.0279301 -0.021310337 -0.055631284 0.35063553 0.011593402 0.0012227334
